hw2_kws/kws.pth (torch, 343294 bytes, 17 tensors)

weight f4 [8, 1, 5, 20]
000000 bc 14 86 3b c2 b7 88 bd b1 b3 53 3d 4a 34 1c bd
       0.004091827 -0.06675674 0.05168504 -0.038135804
000010 73 86 6b 3d cf ab 2d bc 40 01 9f 3c 73 8e 2f bd
       0.057501268 -0.010600044 0.019409776 -0.04286046
000020 42 e9 55 bd 17 3b 74 3d 61 7f 5b bd b9 11 83 3d
       -0.052224405 0.059626665 -0.053588275 0.06399865
000030 c6 fc f8 bc a6 86 ce bd 0b d5 61 3d 50 e2 c1 3d
       -0.03039397 -0.10084276 0.055134814 0.09466994
000040 40 e6 b5 3d 53 11 97 3c 83 60 28 3c 24 5b d2 bd
       0.08881807 0.018440878 0.010276916 -0.1027129
000050 0c 95 93 bc ab 90 43 bc 68 d5 ae 3d f5 5c 3a bd
       -0.018015407 -0.011936347 0.08536798 -0.045498807
000060 61 18 1d 3c 2d 9d 42 3b 43 0f 3d bd ac 0c 80 bd
       0.009588332 0.0029695735 -0.046157133 -0.06252417
000070 38 76 48 bd 3e 64 81 bd 80 65 b2 3d 44 ca 9f bc
       -0.048940867 -0.06317948 0.08710766 -0.019505627
000080 99 d0 74 bd 34 5e 85 3d 88 a8 8f 3d ca 83 0a bc
       -0.059769247 0.065121084 0.07014567 -0.0084542725
000090 53 c7 62 bc fa 76 a4 bd 5f 18 8f bd 7c 2b ba bd
       -0.013841468 -0.080305055 -0.0698707 -0.09090325
0000a0 8b 21 7b 3d a5 20 b5 3d f8 5d 8a bd fb c7 4c 3d
       0.061311286 0.08844117 -0.06756204 0.049995404
0000b0 6b c1 bf 3d 2e 66 22 bd 3a 04 b4 3c 8b 21 21 3d
       0.093630634 -0.039648227 0.021974672 0.03933863
0000c0 39 46 35 3d c5 da 91 3d cb ba 3f bc 3f 13 a3 bc
       0.044256423 0.07121805 -0.01170225 -0.019906638
0000d0 93 91 99 bd 9c d6 87 3d 03 a6 12 bd 67 bc 53 3d
       -0.07498469 0.0663273 -0.035802852 0.051693346
0000e0 5a da c6 bd 6d d0 c1 bd 8f 5a b4 3d d7 ca 0d 3d
       -0.09709616 -0.09463582 0.08806335 0.03461727
0000f0 da aa f6 3b ab 03 bb bc b0 ac c2 bd 24 1e a6 bd
       0.0075276913 -0.022828897 -0.09505594 -0.081112176
000100 1a 47 77 3d d0 86 8d 3d ca 25 2b 3d cf 2b 79 3d
       0.060370542 0.06910479 0.041784085 0.060832795
000110 57 f6 cb bd b1 8c 88 3d 4f 44 a3 bc 62 e1 a2 3d
       -0.09959095 0.0666746 -0.019930033 0.079531446
000120 47 f4 8e bc 06 b2 3f 3d d8 e8 99 bd e7 89 4b ba
       -0.017450465 0.046800636 -0.075151145 -0.00077643845
000130 bf 88 1a 3d c8 e7 9f 3c 6d 55 06 3d c8 6d 84 bd
       0.037728067 0.019519702 0.032796312 -0.064662516
000140 b0 77 34 bd 51 2e 05 3c 7e 16 66 bd b7 c0 17 3c
       -0.044059455 0.0081287185 -0.056173794 0.009262255
000150 9b 06 b1 bd 39 bc 58 bd 41 96 a5 bd a9 4c 91 bd
       -0.08643838 -0.052913878 -0.08085299 -0.070947
000160 bb 08 65 bd 42 17 f7 bc 4e 45 be bd f3 23 94 bd
       -0.05591653 -0.030162457 -0.092905626 -0.07233419
000170 c1 62 6d 3d 6d 8c c7 bc 93 32 9f 3c 53 83 1c 3d
       0.057955507 -0.024358952 0.019433295 0.038211178
000180 ae ed 0c 3d 53 71 a6 3d 36 e6 d9 3c 45 c8 4f bd
       0.034406357 0.08127084 0.026599031 -0.0507281
000190 dc 06 90 bb 62 88 76 bd ce 4a b2 3d 82 d3 3c bd
       -0.004395349 -0.06018866 0.08705674 -0.046100147
0001a0 80 c7 ce bc 3c 87 c2 bd 17 53 d9 3b 26 89 da bd
       -0.025241613 -0.0949845 0.0066322195 -0.1067069
0001b0 d9 e2 31 bd 78 2b 10 3d 59 ec c5 bd ff af 5c 3d
       -0.04342923 0.035197705 -0.0966422 0.05387878
0001c0 ec f3 67 bd 85 3c 9b 3d 1f 10 d2 3d 21 b1 db bc
       -0.056629106 0.075799026 0.10256981 -0.02681786
0001d0 a5 d2 01 bd 52 6c 14 3c d2 63 bd bb 8f fc 87 bd
       -0.031695027 0.009059029 -0.005779722 -0.066399686
0001e0 f6 46 90 bd 43 ba 03 3d d9 12 8d bc d5 11 69 3d
       -0.07044785 0.032160055 -0.017220901 0.05690177
0001f0 80 c8 6f bd bd 66 19 bd c6 e9 60 bd 54 a4 cb bd
       -0.05854082 -0.037451494 -0.054910444 -0.099434525
000200 16 50 cc 3c 52 60 45 3d 03 e7 59 3d 69 ee be 3b
       0.024940532 0.04818756 0.053198826 0.0058267605
000210 3d f2 78 3d cf ae 60 3d 95 5b 9a 3d b0 ca 50 bc
       0.06077789 0.05485421 0.07536999 -0.012743637
000220 aa fe 34 bd 1f cc 9d bd cc 83 1c bd e3 58 30 3d
       -0.04418818 -0.07704949 -0.03821163 0.04305352
000230 e7 4e 67 3c fa 59 7a bd a7 cf e5 3b 4c 05 ad bd
       0.014117933 -0.061120965 0.0070132795 -0.08448276
000240 29 07 5b bd 24 54 a0 3d ef 86 ed 3c 1b 10 cd 3c
       -0.053473625 0.078285486 0.028995005 0.025032094
000250 0d a6 fd 3c 8e 7e 2d bd c3 72 0b 3d 69 db ac bd
       0.030962968 -0.04235702 0.034044992 -0.08440287
000260 77 e9 99 3d b6 c4 b2 bc 39 53 ba 3d f8 27 f9 3a
       0.07515233 -0.021822315 0.09097905 0.0019009104
000270 89 7f aa bd 6c 32 9a 3d ed be aa bd c8 de 39 bd
       -0.08325107 0.075291485 -0.083371975 -0.045378476
000280 f8 66 80 bc f7 44 3c bc ce 10 7f bd 98 87 e1 bc
       -0.0156741 -0.011491052 -0.062271886 -0.027530476
000290 d8 83 6b bd 95 63 fe 3c 99 45 a6 bc 18 c9 ee bd
       -0.057498783 0.031053344 -0.020296859 -0.11659449
0002a0 17 4b da bd 19 4f 05 bd 68 04 45 bd f7 33 b2 3d
       -0.106588535 -0.032546137 -0.048099905 0.08701318
0002b0 58 ee 8e 3d 34 8e 48 bc ca d1 a1 3d db 6e 58 bd
       0.06979054 -0.012240935 0.07901342 -0.052840095
0002c0 6e 5c 85 3d 00 8b 5e bd 70 7f d0 3d 13 e0 d0 3d
       0.0651177 -0.05433178 0.10180557 0.10198989
0002d0 16 f9 a9 3c 0f f6 11 bd c1 aa 87 bd 84 02 af 3d
       0.020748656 -0.03563505 -0.066243656 0.08545402
0002e0 d8 ee c4 bd 6f dc c9 3c 5e 81 c4 bd e0 fb c4 bd
       -0.09615868 0.024641244 -0.09594987 -0.09618354
0002f0 99 6f 3f bd 09 04 cd bd 30 6a 85 bd 1c 6f dc 3c
       -0.046737287 -0.10010535 -0.06514394 0.02690845
000300 8c e9 8d bc f7 72 f8 39 2d 2f c0 bd 86 b8 81 3d
       -0.017323278 0.00047387902 -0.09383998 0.06334023
000310 4a be a2 3d 89 27 c9 bc fc 84 06 bc 8e c2 dc 3d
       0.07946451 -0.024554985 -0.008210417 0.10779296
000320 1e 79 96 3d c5 81 9b bb 3c b3 9e bd ab b2 d3 bd
       0.0734732 -0.0047456943 -0.0774903 -0.103368126
000330 71 4a 5e 3c 8b d8 cf bd d7 ab 8a 3d 34 01 67 bd
       0.013567553 -0.10148724 0.06771057 -0.05639763
000340 1b 62 6d 3d e9 20 bd bd 09 9a 9b bd 3f d1 e7 bc
       0.05795489 -0.09234793 -0.07597739 -0.028298019
000350 bc 55 bc bd eb d5 21 3d 01 4a 84 3d 30 4b 98 3d
       -0.0919604 0.03951065 0.064594276 0.07436216
000360 91 58 c2 3c d8 40 9e 3d 60 cb ae 3c f7 2c be 3d
       0.023723872 0.07727212 0.021337211 0.0928592
000370 a9 5a ad bc db 63 f7 3c 2d 7e 4c bd 23 b2 8f bd
       -0.021161394 0.030198982 -0.049925018 -0.07016399
000380 58 b6 b8 3c 5a ed 91 bd 6f bb 2d 3d 22 80 9f bc
       0.022547886 -0.07125349 0.04241508 -0.019470278
000390 6d 31 b0 3d 9d 22 66 3d 24 50 83 bd be 2b 66 3b
       0.08603177 0.056185354 -0.0641177 0.0035121287
0003a0 51 63 45 3d ba 8a 6a 3c 08 6c b4 bc 7e 93 a1 bc
       0.04819042 0.014315302 -0.02202417 -0.01972365
0003b0 d9 19 76 bd c9 6a 1c bd 54 db 9d bd 6b 92 35 bd
       -0.060083244 -0.038187776 -0.07707849 -0.04432909
0003c0 82 9b 72 ba 75 2c e6 bc 6b 16 55 3d e8 1b a4 bd
       -0.000925474 -0.02809737 0.052023333 -0.08013135
0003d0 7c c7 02 3d c6 8d 56 3d 20 4c 45 3c 3e ae 45 3d
       0.031928524 0.0523813 0.012042075 0.048261873
0003e0 42 29 88 3c 89 eb d3 bd 92 6b 0d 3d 17 e5 7d 3d
       0.016621236 -0.10347659 0.034526415 0.061986055
0003f0 52 8c 8d bc 03 64 77 3d 8b 27 4a 3c c0 84 0f 3d
       -0.017278824 0.060398113 0.012338529 0.03503871

bias f4 [8]
000000 16 f4 ae 3d d3 85 0b bd 15 ef c2 3d 37 e1 9a 3b
       0.085426494 -0.03406317 0.095182575 0.0047265547
000010 75 88 16 3d 32 23 47 bd f0 3c e1 bd 37 2f 1a 3c
       0.03675123 -0.04861755 -0.10997951 0.009410671

weight_ih_l0 f4 [192, 144]
000000 8d 3f b5 bd 57 cc 22 3d 16 51 ed 3c e6 00 34 3d
       -0.08850012 0.039745655 0.028969329 0.04394617
000010 76 1a 07 bd d2 25 e5 3d c8 d7 dd 3d 1d 8b fc 3c
       -0.03298422 0.11188854 0.10832173 0.030828053
000020 5b bb 36 bd a4 2f f6 bd f5 d3 cb 3d 8e 29 ea bc
       -0.04461227 -0.120208055 0.09952537 -0.028584268
000030 c4 39 95 3d 28 b0 63 bd 92 32 eb bd 83 a0 9d bd
       0.072864085 -0.055587918 -0.11484255 -0.07696631
000040 54 2c bb 3d bf 07 bd bc 34 f1 b3 bd c9 06 70 bc
       0.09139314 -0.023074983 -0.0878624 -0.014650055
000050 7f d4 d2 3d c0 e8 2b 3c 48 07 74 3d 95 37 40 3d
       0.10294437 0.010492504 0.059577256 0.046928007
000060 3f 4d 3e 3c 7d 0f a6 3d af e0 85 3d 59 38 e1 bd
       0.011615097 0.08108423 0.065369956 -0.109970756
000070 39 d3 a1 bc 8a 6f 70 3d d6 ab ac bd ea a0 e5 bd
       -0.01975404 0.058700122 -0.084312126 -0.112123325
000080 bc b3 ee bd c3 09 f1 bd 62 77 0a bd a3 43 9e 3d
       -0.11655375 -0.1176944 -0.03380526 0.077277444
000090 f4 36 c9 bd a3 77 95 bd 0f 08 ac 3d fa b9 d7 bd
       -0.098249346 -0.072982095 0.083999746 -0.10533519
0000a0 2d b4 bb 3c 9f ac 7b bb ea 0c ce 3a 67 c7 b2 bd
       0.022913063 -0.003840245 0.0015720401 -0.08729439
0000b0 b1 25 cf bd e9 a1 9d 3d ed 52 b2 3d 46 1f c8 3b
       -0.10114611 0.076968975 0.08707223 0.0061072437
0000c0 ca 00 8b 3d 07 2c 3d bd df e6 07 bd ea df 98 3c
       0.0678726 -0.046184566 -0.03317916 0.018661458
0000d0 67 54 77 3d 3e d8 7e bd 08 03 95 3d 97 e1 c4 bd
       0.060383227 -0.062217943 0.07275969 -0.0961334
0000e0 e2 43 4e bd 92 23 e9 bd 0b f7 8d bd 99 39 a2 bd
       -0.050357707 -0.113837376 -0.06931885 -0.07921142
0000f0 22 fe a7 3c 73 60 07 3d 7f b7 b4 bd c9 b1 61 3d
       0.020506922 0.033050966 -0.088240616 0.05510119
000100 33 70 80 3d 8d 60 da 3d e2 f0 b2 bd 64 72 d7 3d
       0.062714 0.10662947 -0.08737351 0.10519865
000110 87 db f7 3d 11 f2 d4 3d c6 04 85 3d 4f 5a 91 bd
       0.121024184 0.10397733 0.06495051 -0.07097303
000120 89 29 8c bd bf 3a e8 3d cf 11 be bd c9 16 2c 3d
       -0.0684386 0.1133933 -0.092807405 0.042013917
000130 53 54 d9 bc a4 27 a9 3c f6 2a 52 3d d7 59 ae bd
       -0.026529467 0.020648785 0.051310502 -0.08513229
000140 1e 13 cc 3d a9 8e f1 3c ab 6f 92 3c 39 a3 87 3d
       0.09964584 0.029486971 0.017875513 0.06622929
000150 0d 6b 34 3d 64 c3 51 bd da df a0 3d f3 9b 5d bd
       0.044047404 -0.05121173 0.07855196 -0.054103803
000160 be f7 ee bc d6 ce 97 3d 0f 44 8f bd e9 20 b9 bc
       -0.029170867 0.07412498 -0.06995403 -0.0225987
000170 36 8c 6f 3d 36 43 48 bd 4b c4 36 3d 19 a3 07 3d
       0.058483325 -0.048892222 0.044620793 0.033114526
000180 36 7b c0 bc 2d 5e 3b 3d 7f 5d ed bd d0 05 49 bd
       -0.023496252 0.04574411 -0.115900986 -0.04907781
000190 bf 79 d7 3d f7 25 63 bd a6 86 d9 3d db d0 b5 3d
       0.10521268 -0.055456128 0.10621385 0.08877727
0001a0 15 fe 91 bd e5 e7 b6 3d 88 7f 6b bd ec 36 cd bd
       -0.071285404 0.08930949 -0.05749467 -0.10020241
0001b0 fa 47 74 bd 63 b3 cf bd a3 5c a4 3d c1 bb 69 bc
       -0.059638955 -0.10141637 0.080254816 -0.014265955
0001c0 75 b4 1f 3d cf 09 3a bc 61 1e 98 3d 53 dc bc bd
       0.038990457 -0.011354878 0.07427669 -0.09221711
0001d0 03 68 23 3d 3e f0 0e 3d 92 75 97 bd b6 c8 b2 3d
       0.039894115 0.03489708 -0.07395472 0.08729689
0001e0 26 0f 0e be d2 4b ae bd ad 3a cd 3d 0a 93 4a bd
       -0.13872966 -0.08510555 0.10020957 -0.049456634
0001f0 64 f8 a8 bd c8 ff 7c 3d 5a 2d 48 bd 36 32 bc bc
       -0.08250502 0.06176737 -0.048871376 -0.022973161
000200 99 cf 88 3c 15 6f 7f 3d d0 b7 ab bd ca 0b 14 bc
       0.016700553 0.062361795 -0.08384669 -0.009036014
000210 9a f6 3c 3d 00 9a b8 bd 2c cd 29 bc 7f a7 8c bd
       0.046133615 -0.09013748 -0.010363858 -0.06867885
000220 4a 24 e1 bd 7b b0 e5 bc bb 0d 80 bd 1e f5 15 bd
       -0.1099325 -0.028038254 -0.06252619 -0.036610715
000230 33 44 ce bc 28 74 77 bc 45 5e 43 bd df 1a e0 3d
       -0.025179004 -0.015103377 -0.047697324 0.10942625
000240 65 64 cc bd d0 2b af 3d 8c 94 8c bd e8 13 2c 3d
       -0.09980086 0.085532784 -0.068642706 0.04201117
000250 d5 aa 93 bd 91 d3 a7 bd da cf b9 bd 78 a4 85 3d
       -0.07210318 -0.0819465 -0.09072848 0.065255105
000260 51 7d b4 bd cb 2d 56 bd a0 ec d5 bd 31 21 bb bd
       -0.08812965 -0.052289765 -0.10445523 -0.0913719
000270 75 e4 ca 3d 65 3d 8f bd 1d 72 f9 3d b6 7a e5 bd
       0.09906856 -0.06994132 0.121799685 -0.11205046
000280 a7 db cc bd 8a ee a4 bc d2 91 a5 3c 5a 31 c5 bd
       -0.10002833 -0.020133276 0.020211134 -0.09628554
000290 b2 a6 1c 3d 9e 90 07 bd 9d 9e c6 bd c6 9d 8a 3d
       0.03824491 -0.033096902 -0.09698222 0.06768374
0002a0 81 2c cf 3a 2c a1 59 3d bd 5a d3 bd ef 52 b0 bd
       0.001580611 0.05313222 -0.10320041 -0.08609568
0002b0 a7 23 d3 3d d5 d9 45 3c 5b a6 02 3d 32 b6 94 3c
       0.103095345 0.012075861 0.03189693 0.018153284
0002c0 23 02 eb 3d fd 13 4b 3c aa 10 94 3d a0 85 b0 bd
       0.11475017 0.012394902 0.07229741 -0.08619237
0002d0 f6 15 9a bc 7c 8b fb 3b ed e3 bf bd 3f 52 c1 bc
       -0.0188093 0.00767654 -0.09369645 -0.023598788
0002e0 8e 04 54 bc 83 26 95 bc 50 ed 1e bd 49 c4 1f 3d
       -0.012940539 -0.01820684 -0.038800538 0.03900555
0002f0 87 e5 d8 bd 27 ab b3 bd fd 47 52 bd 98 8c f5 3c
       -0.10590654 -0.08772879 -0.051338185 0.029974267
000300 8c 41 5f bd ae 26 2f 3b 1d f5 b7 3c c5 3b 55 3d
       -0.05450587 0.0026725936 0.022455746 0.052058954
000310 a5 79 a5 bd 58 be 08 3d 58 a6 9b bd 7f fa b8 bd
       -0.080798425 0.03338465 -0.07600087 -0.09032153
000320 84 f3 6a bd e2 94 b4 3d be a9 96 bd 63 f3 bd 3d
       -0.05736114 0.0881746 -0.073565945 0.09274938
000330 0c 67 ad 3d 47 1a 85 3b ad 71 a6 3c 2c 89 01 3e
       0.0846692 0.0040619704 0.020317877 0.12649983
000340 cd 44 68 ba f3 cd df bc 9c 75 e3 bc 51 e0 92 3d
       -0.000886035 -0.027319884 -0.027766041 0.07171691
000350 63 1c 39 3b b8 a8 db bd 0f 88 bc 3d 12 9f 5e 3b
       0.002824568 -0.1072554 0.092056386 0.0033969325
000360 cf 84 c1 bd 71 18 b1 3c a2 f5 da 3d 3a 13 72 bc
       -0.09449159 0.0216181 0.10691382 -0.014775092
000370 74 3a 94 3d b3 08 cf bd 28 fe 5c 3c c3 cf 8d bb
       0.072377115 -0.10109081 0.01348833 -0.0043277456
000380 5c ed 6f bd 09 34 92 3d 63 27 cc bb ac d1 8c 3d
       -0.058575973 0.07138831 -0.006230281 0.06875929
000390 e3 00 e8 3d 18 1c ed 3d be 9f 7e bc 5d da ca bd
       0.11328294 0.11577624 -0.015541015 -0.09904931
0003a0 7b 54 51 3d c0 30 d1 3d 32 7a 64 bd d9 7e ce 3c
       0.051105957 0.102143764 -0.055780597 0.02520697
0003b0 5f 4e b9 bd 32 d5 c4 bd 8e 2a f2 bc df 4a 89 3d
       -0.09048151 -0.09610976 -0.029561307 0.06703734
0003c0 45 d5 7e bd cb dd 11 3d 64 77 8b bd de b2 85 3d
       -0.06221511 0.03561191 -0.06809881 0.06528257
0003d0 b6 3a 2b bd f2 02 f3 bc 70 c5 d8 3d f3 9a 83 3d
       -0.041804038 -0.02966449 0.10584533 0.064260386
0003e0 3c e3 4d bc 6c 09 b3 3b 2a 28 82 3d d9 e3 bf bb
       -0.012566384 0.0054637697 0.06355317 -0.005856019
0003f0 8f 83 0e bd 22 83 98 3d 2a a2 a3 3d 21 72 6a 3d
       -0.034793433 0.074468866 0.07989915 0.057237748

weight_hh_l0 f4 [192, 64]
000000 00 ff 82 3d 2a 88 2f 39 58 6f a4 bd be 20 6d 3d
       0.06396294 0.00016740026 -0.0802905 0.057892554
000010 3d 54 50 3d 12 a9 bd bd 07 38 3c bd 9d 78 ef 3c
       0.050861586 -0.09260763 -0.04595187 0.029232318
000020 57 29 10 3c 72 7b d1 3d 02 99 3b bd 33 17 b5 3d
       0.008798919 0.102286234 -0.045800216 0.088423155
000030 f0 9b ac 3d 1e 9b 1e bd b0 b5 5c ba 83 ab 6c 3c
       0.0842818 -0.03872215 -0.00084194075 0.014445188
000040 fa ad ec 3d 3a 32 08 3d 50 4e a4 bc 29 3f a2 3b
       0.11556621 0.033251025 -0.020056874 0.004951377
000050 f4 f1 a5 3d 11 65 29 3d 6c 4f 2d 3d 9d 02 c5 bd
       0.081027895 0.04135615 0.04231207 -0.09619639
000060 ca 47 81 3d 13 f7 cb bd 2e 64 0d 3d 43 51 19 3d
       0.06312521 -0.09959235 0.034519367 0.037431013
000070 0f 0f 57 3d 18 7e d5 3d 77 44 c3 3d 68 1c 8a bd
       0.052504595 0.10424441 0.09534543 -0.06743699
000080 ea 70 04 bd 10 69 b3 bc 61 48 74 3d 43 39 76 bd
       -0.032334246 -0.021900684 0.05963934 -0.060113203
000090 c9 de 7b bd 25 13 df 3c 12 df 35 3d d4 89 84 3d
       -0.06149176 0.027230809 0.04440219 0.06471601
0000a0 90 cf bc bb ba e8 2e bd 36 1d 5b bd ec d0 c9 3d
       -0.005762048 -0.042702414 -0.053494655 0.09854302
0000b0 94 f0 a9 bd ad f3 1f 3d cb ee 88 3d 56 4e e7 bc
       -0.0829784 0.039050747 0.06686171 -0.028235596
0000c0 69 27 14 3c b6 c2 42 bc e4 db b2 3d bf 0c 4e 3d
       0.009042599 -0.011887243 0.08733347 0.050305124
0000d0 7d 93 cb bc ee 13 12 3d ba 7e 7c 3d 17 f8 6e 3c
       -0.024850601 0.035663538 0.061644293 0.014585516
0000e0 44 8e cf bd d2 ec 70 3d 42 8b b3 bc 1d 83 80 3d
       -0.10134557 0.0588196 -0.02191699 0.06275008
0000f0 fc 3a 96 bd 0c e3 61 3d e9 05 78 3d a7 62 26 3d
       -0.07335469 0.05514817 0.06055251 0.040621426
000100 45 ab c7 bc 29 e2 51 bd b9 af 03 3d f5 df 3b bd
       -0.02437366 -0.051241074 0.032150004 -0.04586788
000110 07 0d 6e 3b 00 61 01 bd af 37 bc 3c c5 c6 50 3d
       0.0036323683 -0.031586647 0.02297577 0.05097081
000120 b1 61 fb bc df f7 28 bd 08 62 87 bd d0 53 5b bd
       -0.030686231 -0.041252013 -0.06610495 -0.053546727
000130 1b c8 92 bd 9c 91 8e 3d 71 c8 7c 3c a2 e6 ba 3b
       -0.07167073 0.069613665 0.015428648 0.005703763
000140 6d 77 36 bd cb 46 98 3d 6a df 82 3c 70 ed cd bb
       -0.044547487 0.07435378 0.015975673 -0.0062844083
000150 60 9e 13 bd 81 da 58 bd c8 d3 e4 bb e8 36 85 bd
       -0.03603971 -0.052942757 -0.006983254 -0.06504613
000160 88 2b aa 3a 01 66 b2 bc ab a6 a5 3b b1 e4 34 3c
       0.0012982944 -0.021777155 0.0050552688 0.011040852
000170 96 21 d8 bc 03 28 dd bc a9 ec 63 bc f2 4f 3c bd
       -0.026383203 -0.026996618 -0.013911405 -0.04597468
000180 20 44 80 3c 83 c5 d1 bb 80 22 91 3d 64 27 73 bb
       0.015657485 -0.006401719 0.070866585 -0.0037102336
000190 ec 96 8c 3d 1f 6f 29 3d 02 a1 bb bd 2a f0 93 bd
       0.068647236 0.04136574 -0.09161569 -0.07223542
0001a0 eb 48 94 bd 8a 58 99 bd 2d 38 81 bd cc 30 91 3d
       -0.072404705 -0.074875906 -0.06309543 0.070893854
0001b0 c9 6a 61 3c 90 77 08 3d bc 17 a0 3d 70 cd bb bd
       0.01375837 0.03331715 0.07817027 -0.091700435
0001c0 eb dc ff 3c 30 1d 11 bd a9 b1 d6 bc 8d cd 94 3b
       0.031233272 -0.035428226 -0.026207762 0.004541105
0001d0 55 da 45 bd 58 f1 c3 bb 59 57 d3 39 94 e3 82 bd
       -0.04830392 -0.005979698 0.00040310135 -0.06391063
0001e0 d6 47 32 bd f0 0d b3 bd 5c a9 5b 3c 7c 8a 16 bd
       -0.04352554 -0.08742893 0.013407078 -0.036753163
0001f0 b5 48 ca ba 09 54 e9 39 9a 79 64 3c 70 fd 9b 3d
       -0.0015433045 0.00044503834 0.013945008 0.07616699
000200 c7 0a 4f 3d 9d 4d 9f 3d 17 b9 a1 bd 27 ed 6e 3d
       0.050547387 0.077784754 -0.07896631 0.058331635
000210 11 41 a2 bd b2 57 25 bd 25 03 82 3c fe 0a 64 3d
       -0.07922567 -0.040366836 0.01587064 0.055674545
000220 83 2f 09 3d 30 56 5d bd ef e8 e3 3c bf 6c 91 3c
       0.033492576 -0.054037273 0.027821032 0.01775205
000230 e1 88 ba bd 07 dd 9f 3d 6a 7d 99 bd 2c 5a 80 bd
       -0.09108139 0.078058295 -0.07494624 -0.06267199
000240 31 c8 77 bb 21 d4 84 bc 63 ef 3b bd 64 dc 46 3c
       -0.0037808532 -0.016214432 -0.045882594 0.012137506
000250 7d 94 12 bd 26 61 b5 3d d2 00 9a bd 16 68 25 3b
       -0.03578614 0.0885642 -0.07519688 0.0025239042
000260 1c 7f 1c bc f8 d4 46 bc 8a 65 82 3d 0a 59 89 3d
       -0.00955179 -0.012135737 0.06367023 0.06706436
000270 84 91 0b bc e3 df 98 bc 68 16 95 3d c9 6e f4 3b
       -0.00851858 -0.018661445 0.07279664 0.0074594957
000280 29 8b 9e 3d 58 37 2b 3d fe 50 ab bd 2e 2e 74 3d
       0.077413864 0.041800827 -0.083650574 0.059614353
000290 c9 b8 96 3d a9 64 15 bd 13 ac 3f 3d 97 87 89 3d
       0.07359464 -0.03647295 0.046794962 0.06715315
0002a0 0b 61 0e 3c ea d1 de 3c 4d 77 1e bd 0f f7 8d 3d
       0.008690129 0.027199704 -0.038687993 0.06931888
0002b0 90 1c 1a bc aa 66 4f 3c f5 7d 5f 3c 3e 30 cc bd
       -0.009406224 0.012658754 0.01364087 -0.09970139
0002c0 bd 0c 1c bd b2 27 7d bd 97 48 31 3d 1c fa f3 3a
       -0.038098086 -0.061805435 0.043282118 0.0018613967
0002d0 0f e8 47 ba 6f dd 90 3d 38 a6 9e 3d b5 6c 63 bd
       -0.0007625827 0.07073485 0.077465475 -0.055523593
0002e0 95 a8 88 bd 0b 78 ba bd 54 7e 88 bd 51 fc 8c bc
       -0.066727795 -0.09104928 -0.0666472 -0.017210158
0002f0 2b 76 ab bc 99 8e 29 3b 59 af fa bc 46 2e 56 3d
       -0.02093037 0.0025872348 -0.03060119 0.052290224
000300 aa e3 8d 3d ce 0f 05 3e e8 dc 89 3d 90 fa 87 bd
       0.06928189 0.1299431 0.06731588 -0.06639588
000310 8b 67 54 3d f6 41 95 bd f4 4a 17 bd e7 c8 bf 3d
       0.05185656 -0.07287972 -0.036936715 0.09364491
000320 58 7e 6d 3d b2 70 e0 3d 31 c9 8a bd 5c b1 80 bd
       0.05798182 0.10958995 -0.067766555 -0.062838286
000330 06 2b 56 bd 48 57 91 bd 9c a0 8f 3d d2 5a 3a bd
       -0.052287124 -0.07096726 0.07013056 -0.04549677
000340 d7 59 71 3d 85 fc 90 bd a5 9c 5b ba 4d 75 aa bd
       0.05892357 -0.07079414 -0.0008377529 -0.083231546
000350 8e 6a 10 3d f9 4e b6 3c 36 62 a5 bd ab f2 d7 bd
       0.03525787 0.022254454 -0.08075373 -0.10544332
000360 ce eb 7e 3c 3a 3d d0 38 2d 11 83 3d 9f b1 50 3d
       0.01555915 9.929617e-05 0.063997604 0.050950643
000370 3f 50 a6 3d 23 0c b6 3d 5e 00 99 bd 96 a9 8c 3c
       0.081207745 0.08889034 -0.07470773 0.017170709
000380 d9 74 ab 3c a1 2b b5 3c ef 0d 9e 3d 80 88 a0 bd
       0.02092974 0.02211553 0.07717501 -0.07838535
000390 ee 13 91 bc ed 1b 30 bd e3 6a 9d 3d 2c df d5 3d
       -0.017709699 -0.042995382 0.07686403 0.10442957
0003a0 2d 7a f4 bc 5d 01 c5 bd 63 31 9f bd 13 f4 f0 bd
       -0.029843414 -0.09619401 -0.07773092 -0.117653035
0003b0 d6 32 c3 3d 68 56 a7 bd ad 75 85 bd 44 b8 8d 3d
       0.095311806 -0.081707776 -0.065165855 0.069199115
0003c0 a9 39 06 3d cb 59 10 bd 3c 6b 97 3d 71 91 9b 3c
       0.032769833 -0.035241883 0.073935 0.01899025
0003d0 be fd 4f bd 9e c9 b6 3c db 68 cc bd 76 e4 d0 bd
       -0.050779097 0.022312935 -0.09980937 -0.101998255
0003e0 4f 09 b1 3d 44 e6 ce 3c f7 38 ab 3b 1a df 07 3e
       0.086443536 0.025256284 0.0052252966 0.132687
0003f0 8e eb d9 bd 58 29 87 3c 36 c7 8d bc f2 f0 07 bd
       -0.106406316 0.016499206 -0.017306905 -0.033188768

bias_ih_l0 f4 [192]
000000 61 7f 84 3a c3 f2 7b bd 34 7d ae 3d b6 66 dc ba
       0.0010108763 -0.061510812 0.08519974 -0.0016815278
000010 29 97 80 bd 02 95 de 3d c0 ef d3 3c c7 b1 6c bb
       -0.062788315 0.10868265 0.025871158 -0.0036116706
000020 e5 50 f4 3c d7 f4 41 3d 0e cc b6 3d 6f 5c d4 bd
       0.02982373 0.047352638 0.08925639 -0.10369193
000030 02 a8 8d 3d 3e fa ec bd 25 84 fd 3d 17 24 98 3d
       0.069168106 -0.115711674 0.1237872 0.074287586
000040 c8 31 fc bc dc 56 61 bd 6c 5c e9 3d 8b 3c 4a bd
       -0.030785456 -0.055014476 0.11394581 -0.049374145
000050 c6 c1 10 bc 18 cc 00 3e e7 c8 dd 3d 00 68 c3 3d
       -0.008835262 0.12577856 0.10829335 0.09541321
000060 c1 b7 dd 3d 05 bb e8 bd 02 ef d4 bd 87 96 3b ba
       0.10826064 -0.11363796 -0.103971496 -0.0007155914
000070 1b 10 21 bd bc bc ed 3d 55 cd 5d 3b c7 8c 98 3d
       -0.039322 0.11608264 0.0033844311 0.07448726
000080 75 49 d1 3d 32 f9 1a bd ed f2 41 3d 33 0c 94 3c
       0.10219089 -0.037835307 0.047350813 0.018072223
000090 90 ed 37 bd 85 63 9f bd b5 25 f6 bb 07 6d 60 bd
       -0.04490429 -0.07782654 -0.0075118192 -0.054791477
0000a0 e3 08 74 3d c8 03 ca 3d 00 93 cb bd e6 48 df bd
       0.059578788 0.098640025 -0.099401474 -0.10902576
0000b0 ca 0e c3 3d 43 e5 45 bd a9 57 5d 3d 3b 2d 7f 3d
       0.09524305 -0.048314344 0.054038677 0.062298995
0000c0 d6 77 a6 3d 60 43 e2 bd e3 50 61 bd 74 71 df 3d
       0.08128326 -0.11048007 -0.05500878 0.10910311
0000d0 1d e1 ce 3d f5 33 87 bc a2 46 96 bd c2 33 e4 bd
       0.10101531 -0.016504267 -0.07337691 -0.111426845
0000e0 a8 77 cf 3c 47 0f 0b 3c e7 9c 84 3d 2c 5e e8 3d
       0.025325611 0.008487529 0.06475239 0.11346087
0000f0 51 f7 31 3d 02 50 d3 3c 1e a8 2d 3c fe 1c be bd
       0.04344875 0.025794987 0.010599164 -0.092828736
000100 1f db ae 3d b7 d0 89 3d a5 38 b4 bd 98 63 ce bd
       0.08537888 0.06729262 -0.087998666 -0.1007759
000110 9b 87 c5 bc 97 b6 ad 3d 2e ad bb bd cc d9 db 3d
       -0.024112513 0.08482092 -0.09163891 0.10734901
000120 81 f8 05 be cd 63 4c bd 06 e4 4e bd 49 f1 b8 bd
       -0.13083078 -0.049899865 -0.05051043 -0.090303965
000130 2a 09 7e 3d f1 9b 4d 3c 1c 04 4b 3d 59 23 c6 3d
       0.06202046 0.012549386 0.049564466 0.09674711
000140 97 46 85 bd 01 2e 01 bd b5 12 b7 bd de e6 cd 3c
       -0.065076046 -0.031538013 -0.08939115 0.0251345
000150 0c 8a 42 bd a3 51 50 bd 7a c9 a8 3d e2 75 2b bd
       -0.047494933 -0.050859105 0.082415536 -0.04186047
000160 7e f0 9a bd 85 2b 06 3e 5f fd f1 3c c0 2b 76 3d
       -0.075654015 0.13102539 0.029539762 0.060100317
000170 8a 78 dd 3d 16 61 cf 3b c0 6b 82 bc 9b d3 e8 bc
       0.108140066 0.006328712 -0.01592052 -0.028421214
000180 b2 f0 73 3d 31 37 21 bc 5a 65 cd 3c c0 f6 92 3d
       0.059555717 -0.009839819 0.025072742 0.0717597
000190 97 57 4a 3d b2 c4 52 bd bd 32 67 bd 3c 99 0c bd
       0.04939994 -0.051457115 -0.056444872 -0.034325823
0001a0 e9 66 fb ba e5 2c c5 3d fe a9 97 3d 94 7a 85 3d
       -0.001918045 0.096277036 0.0740547 0.065175205
0001b0 2d 3f e2 bd 28 d9 b0 3d df 1d 8a 3d b8 74 7b 3d
       -0.11047206 0.08635169 0.06743979 0.06139061
0001c0 55 6a 86 3c 54 3d 9e bd ac d2 d4 3d 19 a4 3e 3d
       0.016408125 -0.07726541 0.10391745 0.046543214
0001d0 6b 0d c6 3d a4 51 d3 3d 4c 3b bc 3d 06 8b 01 be
       0.09670528 0.10318306 0.091909975 -0.1265069
0001e0 46 42 e1 3d 04 56 8b bd 43 6a b9 bd 2d 8d 9f bc
       0.10998969 -0.068035156 -0.09053471 -0.019476498
0001f0 64 3c df bd fc 59 ca 3d ed be 6b bd 74 90 df bd
       -0.109001905 0.098804444 -0.057555128 -0.10916224
000200 01 df a5 bd ac cd fc 3c fd 1e b8 bc 69 38 32 3d
       -0.08099175 0.03085979 -0.022475714 0.04351083
000210 7f 42 51 bd f4 84 c2 3c 75 09 90 3c 28 7a 4e 3d
       -0.051088806 0.023745038 0.017582634 0.050409466
000220 2c 8f 92 3c fb 89 44 3c dc 3a e4 bd 4e e7 a4 bd
       0.017890535 0.011995788 -0.11144039 -0.0805193
000230 03 3a 77 bd 10 51 bf bd 29 04 15 3c 8a 90 5f 3d
       -0.06035806 -0.09341633 0.00909523 0.054581203
000240 33 92 7b bd 74 f1 39 bd 7c 83 82 bd ed a1 b9 bc
       -0.061418723 -0.045396283 -0.06372735 -0.02266022
000250 45 38 5e bd 2d 84 05 bc d2 3c 9a bd 84 02 bb bd
       -0.05425288 -0.008149189 -0.07531132 -0.09131339
000260 f1 cb 98 bd 93 9e b5 bd 2b 53 67 bd 9e 77 dc bd
       -0.07460774 -0.08868136 -0.0564758 -0.10765003
000270 d3 22 30 3d e1 84 e3 bd 83 a2 f9 bc e4 4f 55 bc
       0.04300196 -0.11109329 -0.030473 -0.013019536
000280 92 79 f1 bd 75 f1 df 3d 34 13 b9 3d 74 24 64 bd
       -0.11790766 0.10934726 0.09036866 -0.055698827
000290 6b 31 cf bd 03 43 8b bd 5b d8 ea bd b9 0b aa 3c
       -0.101168476 -0.06799891 -0.11467048 0.020757543
0002a0 49 c8 be bd 3c bb ae bd 44 b6 a6 bd 11 05 32 3d
       -0.09315545 -0.08531806 -0.08140233 0.043461863
0002b0 27 55 b1 3d 8f 48 69 3c 43 4d b9 3d 18 b2 cc 3d
       0.0865882 0.014238491 0.0904794 0.09994906
0002c0 4f 70 89 bd 74 ed 37 bd 6a 23 ec 3c 37 e0 e2 bd
       -0.06710874 -0.044904187 0.02882548 -0.11077922
0002d0 62 7c b6 3d ee 85 0c bd 07 e6 05 3d fa 0c a3 bd
       0.08910443 -0.034307413 0.032690074 -0.079614595
0002e0 1d 6d a2 3d 88 70 1e bd 18 84 81 3d 4b d4 65 bd
       0.07930968 -0.038681537 0.06324023 -0.05611066
0002f0 fd 27 62 3d c5 c6 90 bd b3 e4 e3 3d 50 bf b5 3d
       0.055213917 -0.07069162 0.11127605 0.088743806

bias_hh_l0 f4 [192]
000000 25 ea 47 bd 6d 85 d8 bd 89 26 ed 3d 55 1a c2 bd
       -0.048807282 -0.10572324 0.115796156 -0.09477679
000010 94 d5 13 bd 28 67 8e 3c a5 32 ce 3d fb ba 67 bd
       -0.036092356 0.017383173 0.100682534 -0.056574803
000020 9c 97 9f bb 3e a1 e3 3d 49 38 58 bb 69 7a 55 3d
       -0.004870368 0.11114739 -0.0032992533 0.052118693
000030 6f 81 3e 3b bb 0a e5 3d 33 b5 b0 bd e5 eb b9 bd
       0.0029068848 0.11183687 -0.08628311 -0.090781964
000040 55 a2 7d bd a5 58 58 3c ba 48 a9 bd 35 95 7c 3d
       -0.06192239 0.013204728 -0.082658246 0.061665732
000050 ad b1 df 3d 11 fc 49 bd f4 08 1a bc 0e 88 81 bd
       0.10922561 -0.049312655 -0.009401549 -0.063247785
000060 5a 62 3a 3d 6b ee 88 3d 25 3c 88 3d 0c 6e a3 bd
       0.04550395 0.066860996 0.06652097 -0.07979974
000070 b7 ae ed 3c cd a8 8f 3d 37 bc d3 bc e8 14 b6 bb
       0.029013975 0.07014618 -0.025846584 -0.0055566914
000080 a2 c4 b3 bd 4d 42 ca bd e6 07 83 bd e0 b7 5a bc
       -0.08777739 -0.09875927 -0.06397991 -0.013349503
000090 36 ad 25 3d 61 ac b2 3c 3c 93 f6 3c 6f d6 97 3c
       0.04044839 0.021810712 0.030099504 0.018534867
0000a0 9d df b1 3c 25 85 9b bd d2 f3 37 bc d4 69 b4 3c
       0.021713072 -0.07593755 -0.011227565 0.022023119
0000b0 a7 f0 0b 3d 14 6e 4b bd 56 d9 b6 3d 0c db ee 3b
       0.03416505 -0.049665526 0.08928172 0.007289296
0000c0 ea da 5b 3c 15 21 64 3d ad ee 44 3d 81 a7 00 bd
       0.013418892 0.055695612 0.04807918 -0.031409744
0000d0 ca ef 9d 3c 2a d0 70 bd 5f bd 8d 3d dd 3a e1 bd
       0.01927938 -0.05879227 0.06920885 -0.109975554
0000e0 af 89 ba bd a8 5b 0c bd e0 24 80 bc 10 ef 2d bd
       -0.09108292 -0.034267098 -0.015642583 -0.042464316
0000f0 4d b7 85 3d 59 d0 2d bd f3 6d 3f bd b5 7e c2 3d
       0.065291025 -0.042435024 -0.046735715 0.09496824
000100 4d 5a ea bd 47 19 62 3d 80 27 6f bd f9 e2 7a bd
       -0.11443005 0.055199888 -0.05838728 -0.061251614
000110 2b 15 ef 3a a0 08 98 ba f2 f0 1c 3d 55 d1 ab bd
       0.0018240561 -0.001159925 0.03831572 -0.08389536
000120 26 1c e6 3d 0a ca c3 bd 4f 16 03 3d 46 19 06 3e
       0.11235838 -0.0956002 0.032003697 0.13095579
000130 f0 54 21 3d 83 0f d7 3c 6f 1d c8 bd ca 6c 46 3b
       0.039387643 0.026252514 -0.09771239 0.0030277246
000140 e2 39 c5 bd 68 f0 68 3c e7 14 a3 3d 30 06 d7 3d
       -0.09630181 0.014217474 0.07962971 0.10499227
000150 6f f5 0a 3e 81 d9 9b 3d fd 66 e0 3d 78 1f 1b bd
       0.13570188 0.07609845 0.109571435 -0.037871808
000160 2d 53 3f 3d 7c fc e0 bd 93 fe a3 3d 6a 8c 04 3e
       0.046710182 -0.109856576 0.080075406 0.12944189
000170 30 dd 90 3d 61 fb ad 3d 6d 21 05 3d ee bb e1 3d
       0.07073438 0.08495212 0.03250258 0.11022173
000180 80 13 c3 bd 78 c2 67 bd 47 de f0 3c cc 54 98 3d
       -0.09525204 -0.056581944 0.029402865 0.07438049
000190 e2 78 b0 bd 27 c3 9b 3d f0 29 9c bd 54 83 a0 3c
       -0.086168066 0.07605582 -0.076251864 0.019593872
0001a0 10 f2 01 3e 58 1a e4 bd 83 38 d8 3d e2 2e 93 3d
       0.12689996 -0.11137837 0.10557654 0.071866766
0001b0 0b 3c 1f 3c 9b 71 42 3d d3 9e 7a 3d 58 35 d5 b9
       0.009718905 0.047471624 0.061186623 -0.0004066627
0001c0 dc 8f 2c 3d 9e 12 85 3d a1 46 93 3d 56 29 e2 bd
       0.042129382 0.064976916 0.07191206 -0.110430405
0001d0 d3 45 a6 3d 1b fb a7 bd fa 41 e5 bc 49 57 1e bd
       0.08118787 -0.082021914 -0.027985562 -0.03865746
0001e0 2e 36 75 bd 86 22 c7 3d 8f 69 9f bd b3 ab 44 3c
       -0.059866123 0.09723382 -0.077838056 0.012003827
0001f0 f7 fb d1 bd 3a a8 c6 bd 94 4e 7f bd cf 46 8b bc
       -0.102531366 -0.097000554 -0.062330797 -0.017001538
000200 7c e3 a5 bd 30 49 22 3d 04 e0 cf 3d 8d fc e6 3d
       -0.0810003 0.03962058 0.101501495 0.11278639
000210 40 1e bd 3d e9 8f 85 3d 77 6b ca 3d 03 5b ab ba
       0.09234285 0.06521589 0.098837785 -0.0013073388
000220 ed 56 df bd 12 e2 a9 3d c0 7e 58 bc b7 84 da bd
       -0.10905252 0.082950726 -0.013213813 -0.106698446
000230 eb 90 2c bd 27 11 05 3d 26 f8 2a 3d 2e 63 a2 bd
       -0.042130392 0.03248706 0.04174056 -0.07929073
000240 be ef 22 bd 13 a4 00 3d da 6c 03 3d 83 4d f4 3d
       -0.039779417 0.031406473 0.03208623 0.11928847
000250 e8 69 8b bd d9 e9 97 3d 33 34 04 3e d2 51 f6 bd
       -0.068073094 0.0741765 0.12910537 -0.12027325
000260 1a 6b 95 bc 60 8c b3 3d 16 fa a0 3d 3b be 9c bd
       -0.018239547 0.08767009 0.078602 -0.07653471
000270 cf 5f b7 bd fc 67 e5 3d 73 b2 f0 bd bc c0 d9 bc
       -0.08953821 0.11201474 -0.117527865 -0.02658116
000280 0c ac e0 bd 7c 76 f4 3d 29 b1 b9 bd 97 bb e9 bd
       -0.10970315 0.119366616 -0.09066994 -0.11412733
000290 49 53 45 3d 8e 37 d2 3d 8b 91 ca 3d 97 25 f7 bd
       0.04817513 0.102645025 0.09891041 -0.120677166
0002a0 bb 87 d4 3d 2d 05 d6 bd 71 16 24 bd 2d 7f 20 3c
       0.10377451 -0.10450206 -0.040060464 0.009795946
0002b0 a4 d1 e0 3c 8b 8d 88 bd c4 7d 8b bd 6f d6 cb 3d
       0.027443714 -0.06667622 -0.06811097 0.09953009
0002c0 04 a9 30 3d 13 2f 81 39 8f 10 29 bc 62 72 a5 3d
       0.043129936 0.0002463987 -0.010318889 0.080784574
0002d0 57 84 d2 bd c0 16 79 bd 21 db 4a 3d 77 13 36 bd
       -0.10279148 -0.06081271 0.049525384 -0.044452157
0002e0 9e da d0 3d f4 47 ac 3d ae b5 76 3d c3 82 aa 3d
       0.10197948 0.084121615 0.060231857 0.08325722
0002f0 18 40 b2 3d 5b e2 f9 bc a3 10 fd bd 75 d3 b6 3d
       0.08703631 -0.030503443 -0.12356689 0.08927051

weight_ih_l1 f4 [192, 64]
000000 46 20 26 bd c2 9c e6 3b ab c7 c3 3d 31 cc 60 bd
       -0.040558122 0.00703773 0.09559568 -0.054882232
000010 0b 65 16 3c 81 6f 87 bd 2e a3 8e 3d 63 83 ee 3d
       0.009179364 -0.066130646 0.06964718 0.11646154
000020 82 a5 d8 3d 46 bc d6 bd 3c 0e 9b bd fb b4 da bd
       0.10578443 -0.10485129 -0.07571074 -0.106790505
000030 4e d0 b8 3c ad 79 ac bd fc e9 87 bc 69 9e 39 bd
       0.022560265 -0.08421645 -0.016591065 -0.045317087
000040 67 c2 db bd 30 31 79 3c 19 44 d0 3d 5d 83 16 bd
       -0.10730439 0.015209481 0.101692386 -0.03674637
000050 24 16 26 bd 6f 87 e3 3c 4c 77 dc bd be 26 d3 3d
       -0.04054846 0.02777454 -0.107649416 0.10310124
000060 40 7d e2 3b 8e 7b e9 3c cd 17 78 bc 87 9f 21 3d
       0.0069119036 0.028501298 -0.015142393 0.039458778
000070 05 a3 f9 3d 7c d4 d8 3d 7c 2f a8 3d 62 0d e9 bd
       0.12189297 0.10587403 0.08212182 -0.11379506
000080 23 a7 8c 3d 75 79 e5 3c fc 38 b6 bd d4 8e d0 bd
       0.06867816 0.028012017 -0.08897588 -0.10183492
000090 19 d2 8b b9 7e 72 2a 3d cc 06 37 bd 22 d9 d5 bd
       -0.0002666868 0.041613095 -0.044684216 -0.104418054
0000a0 01 82 80 bc 94 af 00 bc cb 49 89 bc 0c 2e e7 bd
       -0.01568699 -0.007854361 -0.01675882 -0.112880796
0000b0 e6 cc d8 3d 4d 7e 5b bc 81 70 4d 3d e0 c5 c0 bd
       0.10585956 -0.013396812 0.05015612 -0.09412742
0000c0 41 b9 ad 3d e0 e4 3b 3d c7 02 d7 3c 4b 8e 41 3c
       0.084826 0.04587257 0.026246442 0.01181371
0000d0 b4 0e 7c 3d cf cf 11 3c 63 06 cc 3d ee 9e 6c bd
       0.06153746 0.008899643 0.09962156 -0.057768755
0000e0 41 ed 04 be d7 cf 26 3d 01 02 81 bd e7 4c 92 3c
       -0.1298113 0.040725555 -0.0629921 0.017858936
0000f0 27 34 82 bd ec b7 e6 bd a2 98 40 3d a8 1a 89 3d
       -0.063576035 -0.11265549 0.047020562 0.066945374
000100 85 ea dd bd 99 55 a2 bd 0b b7 e6 3d e1 66 0d 3e
       -0.10835747 -0.07926483 0.112653814 0.13808776
000110 9d 89 5a bd 34 fd 81 3c 2f 04 2d 3d ed 2a 7f bc
       -0.053353895 0.015867807 0.042240318 -0.015574199
000120 50 2f cc bd 6c 62 b5 3a e7 ca b2 bd 43 a8 da 3d
       -0.09969962 0.0013838536 -0.08730107 0.106766246
000130 7b 1f 26 3d 19 03 87 bc 79 f6 3e bd 39 10 22 bd
       0.040557366 -0.01648097 -0.046621773 -0.039566252
000140 c1 56 92 3d c1 43 c0 3d c4 4e c1 3d 12 4c ca 3d
       0.07145453 0.09387923 0.094388515 0.098777905
000150 75 e3 af bc 0d de cb bc 96 b7 cd 3b 13 6f be 3d
       -0.021470765 -0.024886156 0.0062779887 0.092985295
000160 bd a5 09 be a6 e9 9c ba 28 0d ed 3d 95 2a e8 3d
       -0.1344213 -0.0011971488 0.11574775 0.11336247
000170 67 ce 37 3d 47 1c 4f bd 65 3a 0a 3d 19 df a4 3d
       0.044874575 -0.050564077 0.033747096 0.08050365
000180 2a 01 53 bd 40 41 9c 3d eb ae d1 3c 18 d7 8b 3d
       -0.051514782 0.07629633 0.025596103 0.06828135
000190 7f fc 30 3b 34 ee 9d bc 74 05 48 3d 23 b8 ee bb
       0.0027005968 -0.019278623 0.048833326 -0.0072851344
0001a0 db 7c a5 3d ac ef de ba 91 23 3e bd 6d a3 d6 bd
       0.08080455 -0.0017008684 -0.046420638 -0.1048039
0001b0 f7 85 e8 3d 3c ba b7 bd 1c 50 e5 3c f8 0c 03 bd
       0.11353677 -0.08971068 0.0279923 -0.03199479
0001c0 66 81 87 3c 3c 11 7d 3d df 6d c3 bd e9 e4 86 3d
       0.016541194 0.061784014 -0.095424406 0.0658663
0001d0 b0 e0 1a 3d 33 23 02 be 13 c7 e3 bc 02 9a a1 3d
       0.037811935 -0.1270874 -0.027804887 0.07890703
0001e0 95 16 f2 3d 97 22 00 be df c4 ee 3d 6d f9 1c 3d
       0.118207134 -0.12513195 0.11658644 0.03832381
0001f0 4d 90 b3 bd 00 ce 7c 3d 10 20 a3 bb 3b ab b2 bd
       -0.087677576 0.061719894 -0.0049781874 -0.08724066
000200 cc 2a cf bc 3f bb 79 3d 90 49 53 bd f9 4a 0f bd
       -0.025288962 0.060969587 -0.051583827 -0.03498361
000210 cb 06 5a bc 70 e3 c2 3d ed d3 6e 3d c0 20 af 3d
       -0.013307284 0.095160365 0.058307577 0.085511684
000220 c6 e7 fc 3d 41 a7 67 3c 65 c8 f8 39 fc 03 3f bc
       0.12348895 0.0141389975 0.00047451552 -0.011658665
000230 5b c8 f2 bd 6e 9a 06 3d d2 a7 c7 bc dc 7e 8b 3d
       -0.11854621 0.03286212 -0.024372015 0.06811306
000240 85 80 85 3d 5a 01 34 3d 7e 48 0a 3d 03 78 b6 bd
       0.06518654 0.0439466 0.03376054 -0.08909609
000250 67 a7 ee bd 8f a1 fa bd 4f 3f f5 3c 2c 80 7e bd
       -0.11653023 -0.12237846 0.029937414 -0.062133953
000260 2f 7c a2 bd f6 a8 c1 3d 0c 9d 5c bd 00 f2 b6 3d
       -0.079338424 0.09456055 -0.05386071 0.089328766
000270 5d 6c b7 bc cb 9d 1c 3e 4e cd 1a bd 16 83 84 bd
       -0.022390539 0.15294568 -0.03779345 -0.06470315
000280 5d b8 43 bd 47 84 92 bc b5 f8 02 3d 7b 67 8f 3b
       -0.047783244 -0.01788534 0.031975467 0.0043763495
000290 0d 5d c8 3c e9 df f3 3d 3e 55 ee bd 1f f8 3e 3d
       0.024458433 0.11907942 -0.116373524 0.046623345
0002a0 8c 51 c5 bd 31 ce c3 bd 0f f1 3b bd 70 af b3 3c
       -0.096346945 -0.09560812 -0.04588419 0.021934241
0002b0 ef c7 df 3c ad a3 9d 3d 65 6c 8f 3c ad bb 55 bc
       0.027317015 0.07697234 0.017507741 -0.013045234
0002c0 66 6d 4d bd 12 13 3b bd 51 50 6d bd 1a 15 97 bd
       -0.05015316 -0.045672484 -0.057937924 -0.07377072
0002d0 a1 89 99 3b 6e 94 a0 3d 5a 5d 24 bb 8c 2b b1 3d
       0.004685596 0.07840811 -0.0025080056 0.08650884
0002e0 9b bd f5 bc cd df b8 3d 2a b1 37 bd 07 ff 31 3c
       -0.029997637 0.090270616 -0.04484669 0.010864026
0002f0 60 8d 7c 3c 1c 8d ce bd ae d9 07 3e 30 e7 c5 bd
       0.015414566 -0.10085508 0.13266632 -0.09663236
000300 15 ff cc 3d eb 57 67 ba e2 31 c9 bd 4d e6 6a bb
       0.100095905 -0.00088250515 -0.098239675 -0.0035842836
000310 3b b6 01 be 78 64 6b bd 80 46 06 3e bc d7 b9 3c
       -0.12667172 -0.05746886 0.13112831 0.022685878
000320 bd 36 b9 bd bb 6f 30 bc 1e 3b 5c bd 3f b1 89 bd
       -0.090436436 -0.010768826 -0.053767316 -0.0672326
000330 fe 9a d7 3d a9 2a fe 3c ae 0c ce bd ab 08 1e 3d
       0.10527609 0.031026201 -0.10061012 0.038582485
000340 a7 00 eb 3c cf 02 b4 bc c5 be 0d bc 5d 9c f2 bc
       0.028686834 -0.021973995 -0.00865144 -0.029615575
000350 54 5f d4 bd 9b 40 0e bd 9e 44 83 3d 87 05 db bd
       -0.10369745 -0.03472958 0.06409572 -0.10694414
000360 62 3b bf 3d f1 41 a7 3d 24 30 82 3d 04 be ca 3a
       0.09337498 0.08166874 0.06356838 0.0015468006
000370 d6 3b 00 bd a6 53 d2 bd 4f aa aa 3d 63 00 b5 3d
       -0.031307064 -0.10269861 0.08333265 0.088379644
000380 97 f1 9e 3d a8 35 a8 bd 90 54 b5 3c f8 a3 6d 3d
       0.07760923 -0.08213359 0.02213505 0.0580177
000390 2f c7 57 3d f6 6a 4f bd e2 cb 02 3d 6e 08 64 3c
       0.05268019 -0.050639115 0.03193272 0.013918025
0003a0 ba 93 d5 3b f7 53 fe 3d c2 4b 8d bd 50 96 4f bc
       0.0065178545 0.12418359 -0.06899215 -0.012670115
0003b0 34 5d 11 bc e5 1e ce bd cc 3a fe bc c5 c7 25 bd
       -0.008872319 -0.100644864 -0.031033896 -0.04047372
0003c0 c2 4d 9e bd b4 b7 f2 bd c5 8e e6 bd 4c 12 e8 bd
       -0.07729675 -0.11851445 -0.112577 -0.11331615
0003d0 bd b4 06 3e 79 5c 2a 3c 2e bc 76 bd 3b 11 82 bd
       0.13154884 0.010398024 -0.060238056 -0.06350943
0003e0 1e 46 e1 3d 49 c3 ee 3c 2e 92 e6 3d 2f 1f 00 3e
       0.10999702 0.029145854 0.1125835 0.12511896
0003f0 17 e3 d6 3d 1f 27 b7 3d b1 a3 fc 3c 54 36 34 bc
       0.10492533 0.08943009 0.030839773 -0.010999281

weight_hh_l1 f4 [192, 64]
000000 ab ab 18 3d d9 ba 0e 3d 72 29 e7 bd 90 a8 9b bd
       0.03727309 0.03484616 -0.11287202 -0.0760051
000010 98 ed 00 3e 7d 9b ff 3d 15 99 b0 3c 37 4d 54 3c
       0.12590635 0.12480829 0.02155737 0.012957863
000020 6c 88 36 3d a9 93 d3 3d c5 f3 5f 3d 1b f2 9f 3d
       0.044563696 0.10330898 0.054675836 0.0780985
000030 9e 6d 31 3c ee 7f 90 bd 40 9f af bd d4 9a 16 3d
       0.010829357 -0.07055651 -0.085752964 0.03676875
000040 ae b7 82 3d 11 13 db bd 40 81 89 3d 7e ea 2b 3d
       0.0638269 -0.10696996 0.067141056 0.041971676
000050 3d d8 bb bd 4c 2b c5 3d 6a 0d fa 3c b8 61 da bd
       -0.091721036 0.09627399 0.030523974 -0.106631696
000060 94 f8 0a 3d 35 81 75 bd 31 ac 74 3c 93 c8 88 3c
       0.03392847 -0.059937675 0.014933632 0.016697204
000070 66 38 8c 3d e1 f7 e4 3c ab e1 77 bd d1 a0 11 3d
       0.06846695 0.02795023 -0.060517948 0.035553757
000080 3e 39 8f 3d c8 ee 92 3d b7 55 4b 3d 89 23 44 bd
       0.0699334 0.0717445 0.04964229 -0.04788545
000090 1f eb 29 3d 5f a8 15 3c 97 bf f3 3d 2d 07 9b bc
       0.041483995 0.009134381 0.11901777 -0.01892432
0000a0 e5 37 d1 bc 36 6c bc 3d 92 50 81 3c 59 9b 01 bd
       -0.025539348 0.09200327 0.01578549 -0.03164229
0000b0 29 93 c6 3c 9a 5b ae 3d 66 c4 1e 3d 68 75 26 3d
       0.024240093 0.08513565 0.03876152 0.04063931
0000c0 15 15 29 3d f3 f3 b1 3d 49 5d 15 3d 91 77 e0 3d
       0.04127987 0.08689108 0.036465917 0.109603055
0000d0 78 37 b3 3d 23 a6 aa bd db d4 4a bd a9 aa 9f bc
       0.08750814 -0.08332469 -0.0495194 -0.019490557
0000e0 1f 9d f0 bd 98 bf 9a 3d 20 9f c6 bc cb 60 f6 3d
       -0.117487185 0.07556075 -0.024245799 0.120301805
0000f0 6f 4b 04 3b c8 80 c0 bd 04 55 94 3d 44 ea 31 bd
       0.0020186563 -0.09399563 0.07242778 -0.043436304
000100 4f e7 f3 bc d2 8d 79 3c 79 bb 6a 3d 61 9c dc bc
       -0.029773382 0.0152315665 0.057307694 -0.026930036
000110 ab ef c3 3d db a8 18 3e 7a 76 71 bd 63 6c 0b bd
       0.095671974 0.14908163 -0.05895088 -0.034038913
000120 91 34 d0 bd df 2b f0 ba 0c b0 bf 3c 71 ab 2d 3d
       -0.10166276 -0.0018323621 0.023399375 0.042399827
000130 a5 07 1b 3c 9f 4a ec 3d 01 69 85 bd 1b cc aa 3d
       0.009462272 0.1153767 -0.065141685 0.08339711
000140 d2 9c ab bd 68 e7 aa bd 4c 3c 83 bd 13 2f 45 bd
       -0.083795205 -0.083449185 -0.06407985 -0.048140597
000150 44 b5 15 bc 7e ab f4 3d 42 13 48 3d 87 aa cd 3d
       -0.009137455 0.11946772 0.04884649 0.10042291
000160 2d 01 a4 bd 24 da e7 bd 17 3c df 3c 41 01 d8 3d
       -0.08008037 -0.11320904 0.027250333 0.10547114
000170 2c de 9f bd b6 10 06 3e 66 9d 07 3d d4 3b 0e bd
       -0.07806048 0.13092312 0.03310909 -0.034725025
000180 1d f8 8f 3d b6 1b eb bd 07 a5 92 bd 3d 0d 58 bd
       0.07029746 -0.11479895 -0.07160383 -0.052747
000190 f3 16 79 3d 71 86 04 bc 7e ea 09 bd 56 e0 cd 3d
       0.0608129 -0.008088694 -0.033670895 0.10052554
0001a0 8d 6c b1 3d e2 0e 31 3c c6 5c bb 3d 3a fe c8 bc
       0.086632825 0.010806771 0.091485545 -0.024535287
0001b0 d0 20 06 3e 72 87 75 3d e0 a1 e6 3c c0 08 b6 bc
       0.13098454 0.059943624 0.02815336 -0.02222097
0001c0 a8 91 1b 3d 30 89 ec bc 0d 59 02 3e cf 4a 05 be
       0.037980705 -0.02887401 0.12729283 -0.13016818
0001d0 ff af 80 3d 4d e4 f8 bd 5b ca 29 bd bc 96 86 3d
       0.062835686 -0.1215292 -0.041452747 0.06571719
0001e0 9c b6 26 bd 70 8d f3 bd e6 cd cf 3d 3b e0 b2 bd
       -0.040701494 -0.118922114 0.10146694 -0.08734175
0001f0 43 1e 0e 3d 15 c9 25 bd 08 4e 50 3c 99 4d 9c 3d
       0.03469683 -0.04047497 0.012713917 0.07631988
000200 65 1c 33 3b 9a a0 6c 3d 78 95 40 3d 8f 7f 91 3c
       0.0027330157 0.05777035 0.047017545 0.01776102
000210 2c 42 16 3b 88 5f 23 bd fe 93 4e bd 0b 97 5b 3d
       0.0022927625 -0.039886028 -0.050434105 0.053610843
000220 32 f4 01 bc 9a 76 7d 3c 6e c4 03 be da 8b 50 bc
       -0.007931756 0.015470171 -0.128679 -0.012728656
000230 fa 95 95 3d 5c 08 1b bc 9d 81 ce bd d2 67 77 3d
       0.073039964 -0.009462442 -0.100833155 0.060401745
000240 44 7c 7c 3d 80 a4 0b bc 65 7d 95 3d 09 bd 7c 3d
       0.061641946 -0.008523107 0.07299308 0.061703715
000250 ea b3 b5 3c c8 84 dc bb 84 ec 41 bd d7 e1 ce 3d
       0.022180516 -0.006729696 -0.0473447 0.10101669
000260 d1 1f bb 3d 08 59 45 bd b9 87 b1 3d 48 5e 8a bd
       0.09136928 -0.04818061 0.08668465 -0.06756264
000270 36 f5 09 bd b2 ab d4 3d 4f 28 06 bd 2e 88 fa bd
       -0.033681117 0.10384311 -0.032753285 -0.122330055
000280 18 45 54 bd 83 8a f7 bd e8 e3 e7 3c ae 59 82 bd
       -0.051823705 -0.12086966 0.028306916 -0.06364761
000290 11 67 fd 3a 7f f3 15 bc 7b 21 14 3d cf 85 bf 3d
       0.0019333084 -0.009152292 0.036164742 0.09351694
0002a0 4a 7c 3b 3d a4 44 27 be 41 00 b6 39 86 ab 1f 3d
       0.04577283 -0.16334778 0.00034713934 0.038981937
0002b0 2c c4 a8 bd 11 39 c8 3d 29 5f 12 be 5f 50 db bc
       -0.08240542 0.097765096 -0.14294113 -0.026771722
0002c0 a3 af 53 bc e4 b4 8b 3d 4d 00 bf bd a5 0a cd bb
       -0.012920293 0.068216115 -0.09326229 -0.0062573724
0002d0 1a ec fb 3d 27 d0 b6 bd 03 fd d2 bc 11 76 d2 3d
       0.12300892 -0.08926421 -0.025755411 0.10276426
0002e0 f9 f6 a1 3d a2 0b 23 3d 36 d5 2f bd db ef d8 3b
       0.079084344 0.039806016 -0.042927943 0.00662039
0002f0 96 72 14 3e ab c5 c1 bd 23 50 6b 3d cd 4c 06 3e
       0.14496836 -0.0946153 0.05744947 0.13115235
000300 be e4 ce 3c 04 26 00 3d da f8 e1 3d 0e 12 82 bd
       0.025255557 0.031286255 0.11033793 -0.063511
000310 60 d1 93 3c 99 30 bf bd 08 1d 36 bd 3e 40 cb 3d
       0.018044174 -0.09335441 -0.04446128 0.099243626
000320 0f ba 2d bd 6e ef ea bd bc 47 3f 3c e9 2e 65 3d
       -0.042413767 -0.11471449 0.011674818 0.05595294
000330 90 29 6c 3d c7 77 7b 3d a0 fb cf bd 43 76 b2 3d
       0.057656825 0.061393525 -0.101554155 0.08713963
000340 e3 ab 83 bc 0d 08 8c 3d a9 e8 1c 3d 91 3e e1 bc
       -0.016073173 0.06837473 0.03830782 -0.027495654
000350 3b 55 83 3c e8 ad d2 3d 90 58 4e bd 3c 3c 96 bd
       0.016031852 0.10287076 -0.05037743 -0.073357075
000360 57 3d ed 3d a8 3a 04 be e2 ad 47 3d 16 66 f2 3c
       0.11583965 -0.12913 0.048749812 0.029589694
000370 f0 53 81 bd 6e b0 d6 3c 90 7a 75 3c ae 92 b7 3d
       -0.06314838 0.026207175 0.014982834 0.08963524
000380 65 84 2c bd 64 bf 5a bd 8a 5a a3 bd 49 a8 98 bd
       -0.04211845 -0.05340518 -0.07976253 -0.07453973
000390 48 c0 a1 3d 18 5d d0 bd 90 ef 08 bd 86 f6 ba bd
       0.07898003 -0.10174006 -0.03343159 -0.09129052
0003a0 9c 9e 8d 3d d7 bb 34 3c 77 a6 3c 3d b2 d3 52 3d
       0.06915018 0.011031113 0.04605719 0.05147142
0003b0 e2 13 8c 3c e3 29 18 3d b9 96 8d bc c1 a1 a0 3a
       0.017099325 0.03714932 -0.017283784 0.0012255238
0003c0 ac f9 22 3c 3a ee aa bd 9a 64 d0 bd 69 4d 76 bd
       0.009947222 -0.08346219 -0.10175438 -0.060132418
0003d0 27 cd ef 3d cb 86 a5 bc 11 84 2f bd 83 d0 74 bd
       0.117090516 -0.020205876 -0.042850558 -0.059769165
0003e0 1f fc d5 3c 42 78 9d 3d 1d d9 4c bc 3c 52 af bb
       0.026121197 0.07688953 -0.012502936 -0.0053503793
0003f0 de b6 85 3d 54 a4 cd bd 7c 33 81 bc 4f d2 e0 3d
       0.0652902 -0.10041109 -0.01577162 0.10977613
